tflite_models/staff_detector.tflite (tflite, 71696 bytes, 11 tensors)

arith.constant f4 [16]
000000 00 00 00 00 9a 50 8e ba 0b 90 0f bb bd 64 10 3c
       0.0 -0.0010857761 -0.0021905925 0.00881308
000010 ca 2b b3 bb 5c 56 a7 3a e3 9b 4a 3d 72 b8 b8 ba
       -0.0054678665 0.0012766826 0.04946507 -0.0014093055
000020 74 20 07 3b 00 00 00 00 28 db 8d bc 00 00 00 00
       0.0020618709 0.0 -0.017316416 0.0
000030 69 df c8 bb 23 75 9b 3a 1e 7d 3a 3a 48 61 6f 3d
       -0.006130148 0.0011860471 0.0007113981 0.058442384

arith.constant1 f4 [16, 3, 3, 3]
000000 40 bc 02 be b8 cd 0d 3e 24 b8 72 3d 72 d6 24 3e
       -0.12767124 0.13848007 0.05925764 0.1609743
000010 38 eb 25 be f8 ee f1 bd 60 76 a3 bc b7 f1 e1 bd
       -0.1620301 -0.11813158 -0.019953907 -0.110324316
000020 7a cf bd bd c2 d0 13 be 32 74 37 be 60 27 71 3d
       -0.09268089 -0.14435104 -0.17915419 0.05887544
000030 28 66 dd 3c 7c 47 46 3d 98 ff 5f bd 78 63 e8 bc
       0.027026251 0.048408017 -0.054687113 -0.028367743
000040 68 54 d6 bd b4 47 51 3d 7c 9e e0 3d ab d8 3d be
       -0.10465318 0.051093772 0.109677285 -0.18539684
000050 40 2c 01 3c 6c 76 6b bd 60 8f c7 bb 4f 61 3f be
       0.007884085 -0.057485983 -0.0060900897 -0.18689464
000060 dd 48 ae bd 00 0f 25 bd a6 db 3e 3e af d3 34 bc
       -0.08509991 -0.04029751 0.18638477 -0.011036797
000070 bf 51 fd 39 1b 1f 3c 3e ce f0 02 3e c4 2f 83 bc
       0.00048316826 0.18371241 0.12787172 -0.016013987
000080 bb 80 dd bb 68 e6 43 3e 19 4f d2 3d f6 4d 04 3d
       -0.0067597306 0.19130862 0.10268993 0.03230091
000090 51 62 50 3e ca 0e c8 bd a1 53 26 3e 70 fc 16 be
       0.20350005 -0.09768446 0.1624284 -0.14744735
0000a0 10 91 92 bd ee 7c c7 3d 33 97 9f 3d e5 75 fa 3d
       -0.07156575 0.09740625 0.07792511 0.12229518
0000b0 01 35 f5 3d 55 01 3a 3e f5 7f 9c 3d 1b 6a 62 bd
       0.11973 0.1816457 0.07641593 -0.05527697
0000c0 1c 63 9d bb 7d b7 b2 bd a4 36 05 3d 22 f4 50 bd
       -0.0048030745 -0.08726404 0.032522812 -0.051014073
0000d0 59 98 43 3c 78 5d 8b 3c 50 64 de 3d fc 13 9b 3b
       0.011938178 0.017012343 0.10858977 0.004732607
0000e0 56 41 0f 3d 6e 70 94 3d 1c 69 31 3c 83 39 51 bd
       0.03497442 0.07248007 0.010828283 -0.051080238
0000f0 6a 00 ed bd 5a 3f 1a 3e 75 1e 03 be 82 b1 57 bd
       -0.115723446 0.15063229 -0.12804587 -0.05265952
000100 03 8a 3a 3e 78 a5 d3 bd 89 3b cc 3c 29 ff 1f 3e
       0.1821671 -0.10334295 0.024930732 0.1562468
000110 37 50 f7 bd 37 35 32 3e 3f a4 43 3e d0 a1 36 bd
       -0.12075847 0.17403112 0.19105624 -0.04458791
000120 7f 25 ff 3d 3b 32 0f 3e 25 f7 33 3e 3b d9 2a 3e
       0.12458324 0.13984005 0.17574747 0.1668443
000130 a5 50 21 3e 77 52 03 3e 48 4f bc 3d 9e 36 33 3e
       0.1575342 0.12824427 0.09194809 0.17501304
000140 3b 1b 58 bd 8c 27 8d bd b2 c6 48 3c 51 ac ad bd
       -0.052760344 -0.068923086 0.012254404 -0.08480132
000150 5f cc d0 3d 19 3f 96 3d f9 93 7a bd 3b 3f 45 3e
       0.10195231 0.07336254 -0.061176274 0.19262402
000160 c8 39 89 3d 65 fb 4d bd 60 34 ba bc 85 9e 13 3e
       0.06700474 -0.050288577 -0.022730052 0.14415939
000170 0d c6 28 be d8 08 f8 bd 68 50 2e be 33 31 25 3e
       -0.164818 -0.12111062 -0.1702286 0.1613205
000180 c0 a3 35 3e 58 d9 01 be 0d ba f9 3c de df cc bd
       0.17738247 -0.12680566 0.030484224 -0.10003637
000190 f5 67 0c 3d fc 12 fa bd c6 60 1f be c5 41 91 bd
       0.03427883 -0.12210652 -0.1556426 -0.07092623
0001a0 73 ab 3b 3c bd 6d d6 3c 2e a4 fc 3c ce 5c 2d 3d
       0.011454451 0.026175374 0.030840006 0.042324834
0001b0 29 71 58 bc b4 93 1e 3e 22 e0 9c bb bf 6f 57 3d
       -0.013210573 0.15486032 -0.004787461 0.052596804
0001c0 5c 4b 13 3b 59 54 05 be b9 02 36 3b f4 67 88 3d
       0.0022475338 -0.13020457 0.002777262 0.066604525
0001d0 63 f5 76 3c b6 29 09 be c0 ea 3f be 93 a0 1a be
       0.015073153 -0.13394818 -0.18741894 -0.15100317
0001e0 23 9a ae bd 8e 8b 9b bd f4 35 f9 3d 52 fb 0a be
       -0.08525493 -0.07594977 0.12168494 -0.13572434
0001f0 26 b6 4b bd 5f 51 e6 bb ca ac b6 3a 75 68 56 3d
       -0.049734257 -0.007028743 0.0013936993 0.05234571
000200 9d e4 80 bd fd c4 23 be 65 75 7e bd dd de 94 3d
       -0.062936045 -0.15993114 -0.062123675 0.0726907
000210 ed d3 07 be 3b 4e 17 3e 20 dc 74 bd 2e 84 8a 3b
       -0.13264437 0.14775936 -0.05978024 0.004227183
000220 c2 c3 a7 3d a7 e4 32 3e 6e 54 52 3d f9 ad b8 bd
       0.08191635 0.17470036 0.05135005 -0.09017558
000230 47 92 53 3e 9a ee aa bd 99 87 01 be 71 2a 4c 3e
       0.20661269 -0.08346291 -0.12649383 0.19938065
000240 0a 33 55 3e 6e 57 e3 bd 02 32 f2 bd fa 8b af bc
       0.20820251 -0.1110066 -0.118259445 -0.02142905
000250 f2 6f 21 3e 1c 77 17 3e 52 67 52 3e 41 2f 07 3e
       0.1576536 0.1479153 0.20547226 0.1320162
000260 b7 e9 6b 3d a0 f4 76 bd 0b 69 3d bd 2d 7c f4 bc
       0.057595935 -0.060291886 -0.046242755 -0.029844368
000270 0a 2d 02 3e 0c 2d 93 bd 08 0f 55 bd 84 5d 32 3d
       0.12712494 -0.071863264 -0.052016288 0.043546215
000280 ce 3b 9f 3c 15 30 04 be a3 fa 38 3e 69 2d 01 be
       0.019437697 -0.12908967 0.1806436 -0.12614979
000290 e0 77 57 bd 7a 87 ff 3d 48 f0 22 be ba 99 01 3e
       -0.052604556 0.12477012 -0.15911973 0.12656298
0002a0 72 6d 24 bd 4a 51 d5 bc 05 27 2c 3e 7a 48 eb bd
       -0.040143438 -0.026039738 0.1681176 -0.11488433
0002b0 d0 8b d8 bd 4a 09 a1 bd c1 1c 49 bd 09 97 2e 3d
       -0.10573542 -0.078631 -0.049099687 0.042624507
0002c0 62 d2 4e bd 3a b4 51 3e 14 71 1b 3e 6d 06 11 3e
       -0.050493605 0.20478907 0.15179855 0.14162607
0002d0 a0 c2 a2 be f6 18 35 be cc 68 9b bd 31 c0 53 3e
       -0.31789112 -0.17685303 -0.07588348 0.20678784
0002e0 ac 29 62 3e 28 c9 23 bd 3b 33 42 3e c7 13 74 bd
       0.22086209 -0.03998676 0.18964855 -0.059589174
0002f0 5b 7e e5 bd 50 8c fd 3d d5 67 3a bd 69 ab 0a 3e
       -0.11205741 0.12380278 -0.04550918 0.1354195
000300 f9 49 9b 3d f6 f4 36 3e ac 5e 20 3d a9 ea 33 3b
       0.075824685 0.17866883 0.039152786 0.00274531
000310 80 f8 29 3e 17 ce 1c be c6 aa f4 bd 78 f3 81 3c
       0.16598701 -0.15312992 -0.11946635 0.015863165
000320 07 74 ba 3d b6 ea fb bd e5 cb c0 bd 4c 05 2b 3e
       0.09104162 -0.12300627 -0.0941389 0.1670124
000330 0c b6 33 be 45 b4 25 be 27 69 7e 3d 38 65 3c bd
       -0.17549914 -0.16182049 0.062112 -0.045994967
000340 06 2c b7 3d 02 ea 24 3e 21 22 e2 3d c0 7e 2d 3e
       0.08943944 0.16104892 0.11041666 0.16942883
000350 63 91 27 be 2f ea 98 3c ae 05 16 be 7e 29 ab 3d
       -0.16364054 0.018666355 -0.14650604 0.083575234
000360 ba b0 ab 3b eb 9b 2e 3e a1 94 dc 3d 1e eb 0c 3e
       0.0052395733 0.17051665 0.10770536 0.13761565
000370 af 79 4a 3e f1 14 bf 3d 6f 7b 39 3e 77 c5 98 bc
       0.19772981 0.09330166 0.18113492 -0.018648846
000380 c6 b9 ac 3d 4e a2 29 be 1d 57 c5 bd 26 27 b4 bc
       0.08433871 -0.1656582 -0.09635756 -0.021991324
000390 0a 80 01 be b5 d5 96 3c 8b 5b 1c bd 7b 84 01 3e
       -0.126465 0.01841245 -0.03817324 0.12648194
0003a0 e1 ed 26 3e 91 ac 01 3e 14 a3 d9 bd ae 31 77 bd
       0.16301681 0.12663485 -0.10626808 -0.060350113
0003b0 40 41 39 be 43 e8 57 bd 29 82 ff 3d 5b 44 51 bd
       -0.18091297 -0.052711736 0.12475998 -0.05109058
0003c0 14 a8 5f 3d 54 e8 2e be a3 b3 5b be 29 14 b4 bd
       0.05460365 -0.17080814 -0.21455245 -0.08792908
0003d0 ac ea 97 bd cc 4f d3 3d c7 bb c7 bd cd 24 38 be
       -0.07417807 0.103179544 -0.097526126 -0.17982788
0003e0 12 c9 d4 bd ec 01 0c be a0 79 7e 3d bb 28 da bd
       -0.103899136 -0.13672608 0.06212771 -0.106523
0003f0 e7 75 28 be 8c a3 01 3e ae 68 24 be 28 ec 93 bd
       -0.16451226 0.12660044 -0.16055557 -0.072227776

arith.constant14 f4 [16]
000000 48 fc 45 3c ab a8 24 3c 6c 5d eb bb 47 c4 2f bc
       0.012084074 0.010049979 -0.0071827676 -0.0107279485
000010 8a b5 a9 3b ce 02 26 3c 09 72 20 bc c4 5c 39 3c
       0.005179112 0.010132505 -0.009792813 0.011313621
000020 f4 bb 4b bb 20 a3 24 3c d6 6c 5e 3c 14 a4 1c bc
       -0.003108737 0.010048658 0.013575753 -0.009560604
000030 58 a7 6b bc 64 5b e9 bb dd 29 45 bc 46 a7 22 bc
       -0.01438316 -0.0071214903 -0.012033907 -0.009927576

arith.constant15 f4 [32]
000000 c2 f8 25 bc 37 03 2d bc 46 1d 67 3c 58 6d 00 bc
       -0.010130109 -0.0105598485 0.0141061 -0.00783857
000010 dd 4e 0a bb 88 0a 41 ba e2 49 52 3c 84 1b aa bb
       -0.0021104135 -0.0007363935 0.012834998 -0.0051912684
000020 eb 2e c3 3b 50 a6 94 3c 8d fb cc bb b0 6c f6 3c
       0.005956521 0.01814571 -0.006255573 0.030081123
000030 bb d3 fb bb 0f 81 e9 3c 34 0f 65 3c 1d 44 99 3c
       -0.0076851523 0.028503923 0.0139806755 0.018709237
000040 95 75 95 3c 49 15 aa bb ca 5a 61 bb 5c d9 a6 bb
       0.018244544 -0.0051905257 -0.003438639 -0.005091829
000050 9e 26 4a 3c 26 7c fc bb 77 ba 2a 3b 6b da 2a 3c
       0.012338309 -0.0077052293 0.0026051083 0.010428051
000060 29 81 00 bc 41 aa ad 3b 00 61 1d 3c cc 26 6a 3c
       -0.007843294 0.005299837 0.009605646 0.014291476
000070 bf ed 51 bc ca 19 14 bc 62 bf 4c 3c 26 1c e6 3c
       -0.012813031 -0.009039352 0.012496801 0.028089594

arith.constant16 f4 [64]
000000 88 d9 03 bc aa ad 03 bb 3a 43 b0 3b d5 bb ad bc
       -0.008047469 -0.0020092526 0.005379108 -0.02120773
000010 96 aa fe 3b bf 72 05 3c a8 f9 66 3b 31 0f 56 3b
       0.0077718003 0.008145033 0.0035244022 0.0032662863
000020 04 4d 56 3a ae f2 2a bc 86 b1 91 3c b6 c9 0d 3c
       0.00081749284 -0.010433836 0.017784845 0.008654049
000030 92 2d 4c 3c fc dc 5d 3c d6 ee 90 3a 48 74 c6 3b
       0.012462037 0.013541456 0.0011057507 0.0060563423
000040 9b 98 e5 3b 09 8d 8f bc e9 2e 3d bb 30 6f a5 3b
       0.0070067174 -0.017523305 -0.0028867072 0.005048655
000050 97 a8 2b 3d 76 f8 9d 3c 7a 85 4c bc e1 d9 c1 3b
       0.041908827 0.019283514 -0.012482995 0.005915866
000060 bd 3d 0f 3c a2 62 91 3c b9 21 09 3d d7 ca 40 3b
       0.008742747 0.017747227 0.033479426 0.0029417777
000070 1f 4a 53 3c 74 ad f3 bb 02 d2 ef bb 12 29 a0 3c
       0.01289609 -0.0074364487 -0.007318736 0.019550834
000080 26 ef 0b 3c 20 67 82 bb e8 92 01 3c 59 9c 9c 3c
       0.008540904 -0.0039795786 0.00790856 0.019117521
000090 64 a6 c3 3c 49 3f b3 3b 5d 62 43 bc d1 45 a9 ba
       0.023883052 0.0054701907 -0.011925307 -0.0012914484
0000a0 9a 39 b1 3c c2 0c 61 bc 4d bb e9 bb 11 de e6 3b
       0.021633912 -0.013735952 -0.0071329237 0.0070455153
0000b0 8b aa 9a 3a 79 71 ca 3b dd 27 67 b9 4c 00 21 3c
       0.0011800093 0.006178078 -0.00022044727 0.009826731
0000c0 30 dd 7c bc bc 28 a8 bb bf 9b 63 3c b9 2c 47 3c
       -0.015433595 -0.005131809 0.013892113 0.012156659
0000d0 01 8e c6 b9 94 84 60 3c 31 9e dd ba 3b 87 42 3c
       -0.00037871304 0.013703484 -0.0016908107 0.011873062
0000e0 38 00 2f bc ee 52 a6 3c 55 04 b0 3a f6 c7 08 3d
       -0.0106812045 0.020303216 0.0013429025 0.033393823
0000f0 b9 b7 6f 3b e6 20 18 bc 20 80 99 3b 46 d4 12 3b
       0.0036578013 -0.009285187 0.004684463 0.0022404357

arith.constant17 f4 [32]
000000 66 bd 51 bb 13 45 5a 3a fa 4b 37 bc a0 f5 09 3b
       -0.003200376 0.0008326333 -0.011187548 0.0021050945
000010 3e de 01 3c 40 1f 75 3b f1 d3 47 bc 00 00 00 00
       0.007926522 0.003740266 -0.012196527 0.0
000020 4d 1b df bb 77 0e 8a bc f4 3b 9c 3b 62 6f 39 bc
       -0.0068086744 -0.0168526 0.004767889 -0.01131806
000030 34 ec ac bc 41 5f ff bb 82 55 6e 3c 9d 42 8f ba
       -0.021108724 -0.0077933376 0.014546754 -0.0010929886
000040 da 6d ba 3b 5b ec a3 bc 7b 72 2a 3c cc ee a4 bb
       0.005689365 -0.020010164 0.010403271 -0.0050333496
000050 83 30 ad 3c db 07 43 3b 30 b1 da 3b 50 b1 ac 3b
       0.021141296 0.002975932 0.0066739544 0.0052701607
000060 df 14 bf 3b 90 a8 4b bc c4 05 22 3c b0 33 86 3a
       0.0058313455 -0.012430325 0.00988907 0.0010238793
000070 1e 4b f9 3b e0 e0 06 bb eb f5 40 bc e7 fa 01 3d
       0.0076078316 -0.0020580813 -0.011777381 0.03173342

arith.constant19 f4 [1, 1, 1, 16]
000000 61 49 22 bf d6 94 8c be 7a d3 b5 3e 6f 14 74 3b
       -0.6339322 -0.27457303 0.35512906 0.0037243625
000010 1e 47 0b bf a2 cd 42 be 9b 5c 0d 3f 8a c5 d1 be
       -0.5440539 -0.19023755 0.5521943 -0.40971023
000020 ef 7c bc 3e 04 42 80 be 51 25 a6 be 40 23 3e 3e
       0.36814067 -0.25050366 -0.32450345 0.18568134
000030 1a 4d 8b 3e 53 72 e5 3e c5 c3 2b 3e fb 6f b3 3d
       0.2720726 0.44813785 0.16773899 0.08761593

tfl.pseudo_qconst i1 [16, 3, 3, 48]
000000 ff f5 09 fc 08 25 eb e6 1d 02 f3 d4 01 36 e4 17
       -1 -11 9 -4 8 37 -21 -26 29 2 -13 -44 1 54 -28 23
000010 27 04 1e 27 ea 0a dd 29 f2 0b 18 08 24 fc 10 20
       39 4 30 39 -22 10 -35 41 -14 11 24 8 36 -4 16 32
000020 ea 08 f0 f3 05 19 ec fd 00 ee fa 02 13 e7 0a 39
       -22 8 -16 -13 5 25 -20 -3 0 -18 -6 2 19 -25 10 57
000030 10 22 0b 14 0b ff 1f 28 ea 08 e8 11 f6 38 22 27
       16 34 11 20 11 -1 31 40 -22 8 -24 17 -10 56 34 39
000040 fd 10 1b 01 04 0e df dd 17 ef de 18 03 19 e1 19
       -3 16 27 1 4 14 -33 -35 23 -17 -34 24 3 25 -31 25
000050 df f9 33 13 e1 f7 3d 28 26 f7 e3 26 19 08 1a 1d
       -33 -7 51 19 -31 -9 61 40 38 -9 -29 38 25 8 26 29
000060 f4 04 e5 ee f5 00 e1 e8 09 1c 02 06 ec e8 f3 1f
       -12 4 -27 -18 -11 0 -31 -24 9 28 2 6 -20 -24 -13 31
000070 06 f6 f0 1d 02 02 0d 19 04 10 e9 ff 29 ea 1b fa
       6 -10 -16 29 2 2 13 25 4 16 -23 -1 41 -22 27 -6
000080 17 18 00 c6 15 e7 89 f2 04 f0 e6 f0 e1 d1 04 c8
       23 24 0 -58 21 -25 -119 -14 4 -16 -26 -16 -31 -47 4 -56
000090 e0 f7 29 dc 0c 20 0a 09 f8 19 11 52 f4 1c 07 15
       -32 -9 41 -36 12 32 10 9 -8 25 17 82 -12 28 7 21
0000a0 17 e5 f4 26 f0 e0 f4 14 14 00 28 15 1a 0a 17 39
       23 -27 -12 38 -16 -32 -12 20 20 0 40 21 26 10 23 57
0000b0 df 1f f0 01 23 33 6b 18 10 f1 f3 1c e3 2d ef 23
       -33 31 -16 1 35 51 107 24 16 -15 -13 28 -29 45 -17 35
0000c0 f2 eb 2c e1 e9 f7 28 e5 07 f7 16 35 f4 0f 08 ff
       -14 -21 44 -31 -23 -9 40 -27 7 -9 22 53 -12 15 8 -1
0000d0 da 0f 11 10 e2 16 02 e8 fa e5 13 21 19 26 28 12
       -38 15 17 16 -30 22 2 -24 -6 -27 19 33 25 38 40 18
0000e0 19 ea 0a ed e0 30 4c 18 f7 1e 24 0e 28 18 0c 17
       25 -22 10 -19 -32 48 76 24 -9 30 36 14 40 24 12 23
0000f0 fb e7 fe 1d 2b ed 28 f5 0a 17 ec 4f e9 cc 23 e2
       -5 -25 -2 29 43 -19 40 -11 10 23 -20 79 -23 -52 35 -30

tfl.pseudo_qconst1 i1 [32, 3, 3, 96]
000000 df 27 ea 04 c1 8f d3 45 b2 8d f6 fe 0e fc 96 22
       -33 39 -22 4 -63 -113 -45 69 -78 -115 -10 -2 14 -4 -106 34
000010 ac 1a d0 af 10 5d e3 58 38 ce 8a 0d a4 e6 a4 f2
       -84 26 -48 -81 16 93 -29 88 56 -50 -118 13 -92 -26 -92 -14
000020 e1 01 b2 b5 eb dc 15 a9 f8 9a 5e 1d da d1 1b fb
       -31 1 -78 -75 -21 -36 21 -87 -8 -102 94 29 -38 -47 27 -5
000030 5f 31 c3 db e1 f8 f9 fa fd c7 16 1c f5 27 c6 f1
       95 49 -61 -37 -31 -8 -7 -6 -3 -57 22 28 -11 39 -58 -15
000040 93 2b cf bb df 44 21 fc bd b0 9e 64 17 6f d8 5b
       -109 43 -49 -69 -33 68 33 -4 -67 -80 -98 100 23 111 -40 91
000050 27 9f fd 18 3f 4b 00 c0 5f fb c0 36 0f fa 8d 64
       39 -97 -3 24 63 75 0 -64 95 -5 -64 54 15 -6 -115 100
000060 4e 29 25 05 18 f4 cb c6 3e 92 a1 2c 02 5f 8f 11
       78 41 37 5 24 -12 -53 -58 62 -110 -95 44 2 95 -113 17
000070 25 f0 00 25 62 08 d0 1a a1 a6 d1 2a 5b ad b4 5a
       37 -16 0 37 98 8 -48 26 -95 -90 -47 42 91 -83 -76 90
000080 18 9a 0a a8 27 d9 ca 12 3b 5f 29 59 4c d0 44 12
       24 -102 10 -88 39 -39 -54 18 59 95 41 89 76 -48 68 18
000090 d4 2f 44 42 a2 ff f9 c8 e0 54 5b 12 20 18 39 2e
       -44 47 68 66 -94 -1 -7 -56 -32 84 91 18 32 24 57 46
0000a0 f1 ad f9 86 5d 58 5e c0 62 22 83 41 33 2e df ef
       -15 -83 -7 -122 93 88 94 -64 98 34 -125 65 51 46 -33 -17
0000b0 46 00 4d ac ca d6 ce c1 08 03 f6 b1 d1 5f e8 9c
       70 0 77 -84 -54 -42 -50 -63 8 3 -10 -79 -47 95 -24 -100
0000c0 8f 29 31 b3 fa 39 db 99 2d 06 b7 1c 2e cf b4 42
       -113 41 49 -77 -6 57 -37 -103 45 6 -73 28 46 -49 -76 66
0000d0 13 4a af ef 03 09 c3 e1 9b 2e bc 96 5c 93 3a 37
       19 74 -81 -17 3 9 -61 -31 -101 46 -68 -106 92 -109 58 55
0000e0 53 98 e9 3b a6 b9 90 bb 24 ba de b7 2f c8 2e 4c
       83 -104 -23 59 -90 -71 -112 -69 36 -70 -34 -73 47 -56 46 76
0000f0 9c f3 52 60 ad 39 2b 85 93 a1 06 66 04 65 d0 aa
       -100 -13 82 96 -83 57 43 -123 -109 -95 6 102 4 101 -48 -86

tfl.pseudo_qconst2 i1 [64, 3, 3, 32]
000000 c3 e5 52 05 21 01 d1 0c 00 5e 56 07 ac dd bc 27
       -61 -27 82 5 33 1 -47 12 0 94 86 7 -84 -35 -68 39
000010 c6 dd fa f1 46 bb db c1 f7 b7 be df 3a f2 a0 08
       -58 -35 -6 -15 70 -69 -37 -63 -9 -73 -66 -33 58 -14 -96 8
000020 cc 2f 52 f1 f1 f8 5c a3 99 31 1a a4 3b 9a fa f6
       -52 47 82 -15 -15 -8 92 -93 -103 49 26 -92 59 -102 -6 -10
000030 a8 5e c9 54 b6 24 d5 24 3a e4 9e d6 98 4d a2 52
       -88 94 -55 84 -74 36 -43 36 58 -28 -98 -42 -104 77 -94 82
000040 da 49 58 07 bc a5 33 1c f2 3a 96 c4 0e 25 ab 00
       -38 73 88 7 -68 -91 51 28 -14 58 -106 -60 14 37 -85 0
000050 2b 3d e2 db a4 21 e2 db e8 cd cb 55 f7 db e3 cb
       43 61 -30 -37 -92 33 -30 -37 -24 -51 -53 85 -9 -37 -29 -53
000060 e8 fa 06 a6 f0 28 98 98 12 e5 0f dd 2b ef e5 37
       -24 -6 6 -90 -16 40 -104 -104 18 -27 15 -35 43 -17 -27 55
000070 17 0d fa 6a eb ec 04 af 38 48 31 9f 11 b4 a9 27
       23 13 -6 106 -21 -20 4 -81 56 72 49 -97 17 -76 -87 39
000080 3b ef 3d 9a aa 18 fb 40 3d 0e ec 05 46 ca bf d1
       59 -17 61 -102 -86 24 -5 64 61 14 -20 5 70 -54 -65 -47
000090 25 0c ae ff b7 21 1b de 92 e1 9c c4 1a 1b 30 e0
       37 12 -82 -1 -73 33 27 -34 -110 -31 -100 -60 26 27 48 -32
0000a0 18 0a 35 b7 e0 ea a7 d8 cd c2 a0 e6 43 63 e5 29
       24 10 53 -73 -32 -22 -89 -40 -51 -62 -96 -26 67 99 -27 41
0000b0 4c 05 f0 3b 02 53 ba ca fc 34 07 0d 9c 24 f8 9e
       76 5 -16 59 2 83 -70 -54 -4 52 7 13 -100 36 -8 -98
0000c0 cf 04 01 d6 4d 16 3d ed 0d c5 df ad f7 d5 d4 94
       -49 4 1 -42 77 22 61 -19 13 -59 -33 -83 -9 -43 -44 -108
0000d0 f7 ff fd 15 42 f2 bf ea 20 ee 1a 37 da 93 38 e7
       -9 -1 -3 21 66 -14 -65 -22 32 -18 26 55 -38 -109 56 -25
0000e0 a5 81 da 5d ba cd aa 2c 52 9e b8 fe be 2f e0 ee
       -91 -127 -38 93 -70 -51 -86 44 82 -98 -72 -2 -66 47 -32 -18
0000f0 91 65 98 1e a1 4b 9c 1c 93 21 3e 9c dc f1 e4 f0
       -111 101 -104 30 -95 75 -100 28 -109 33 62 -100 -36 -15 -28 -16

tfl.pseudo_qconst3 i1 [32, 3, 3, 16]
000000 e3 f5 05 ff f1 1a e0 01 c5 20 fd 2c fc 00 06 2d
       -29 -11 5 -1 -15 26 -32 1 -59 32 -3 44 -4 0 6 45
000010 1e fa 03 19 0a 14 81 47 c9 2f dd ce 3f d2 28 26
       30 -6 3 25 10 20 -127 71 -55 47 -35 -50 63 -46 40 38
000020 0b 04 05 11 ff f8 c5 2f eb f1 e3 28 ee 02 45 18
       11 4 5 17 -1 -8 -59 47 -21 -15 -29 40 -18 2 69 24
000030 e1 fb 22 09 eb e4 fb 17 2c 2f 03 32 e0 18 20 bd
       -31 -5 34 9 -21 -28 -5 23 44 47 3 50 -32 24 32 -67
000040 ef d5 1d 03 1e 2f f6 ed fc 15 fd f2 02 24 10 e2
       -17 -43 29 3 30 47 -10 -19 -4 21 -3 -14 2 36 16 -30
000050 f8 25 f2 2c 20 0b 2f e2 25 d3 22 07 10 0e 3a bc
       -8 37 -14 44 32 11 47 -30 37 -45 34 7 16 14 58 -68
000060 10 d4 05 ef 2e 25 29 02 3d 21 e6 ef d1 1f e6 0b
       16 -44 5 -17 46 37 41 2 61 33 -26 -17 -47 31 -26 11
000070 f8 f6 bf fb 2f eb 3a d6 e2 31 ef f0 16 3d e1 44
       -8 -10 -65 -5 47 -21 58 -42 -30 49 -17 -16 22 61 -31 68
000080 ce cc 13 da e8 10 56 f3 2a 31 18 13 d6 03 ff 4a
       -50 -52 19 -38 -24 16 86 -13 42 49 24 19 -42 3 -1 74
000090 e7 e8 15 3a 0e df fc 23 c5 1b cf e5 c3 16 fb fe
       -25 -24 21 58 14 -33 -4 35 -59 27 -49 -27 -61 22 -5 -2
0000a0 24 12 0e 44 1c fd b9 fd f3 cf 2c 06 03 b7 28 2e
       36 18 14 68 28 -3 -71 -3 -13 -49 44 6 3 -73 40 46
0000b0 e8 19 17 e3 37 f0 f8 cb c2 e7 dd 31 f1 b5 0c f8
       -24 25 23 -29 55 -16 -8 -53 -62 -25 -35 49 -15 -75 12 -8
0000c0 ee 1e 07 f2 2a 27 f4 ee c9 e1 05 10 45 e9 ff ce
       -18 30 7 -14 42 39 -12 -18 -55 -31 5 16 69 -23 -1 -50
0000d0 c9 08 0e 11 22 44 bb f6 e4 d8 d6 c8 4b 28 f4 e2
       -55 8 14 17 34 68 -69 -10 -28 -40 -42 -56 75 40 -12 -30
0000e0 0b 06 33 d8 ca 15 f1 00 02 11 cd 07 e7 e1 d1 02
       11 6 51 -40 -54 21 -15 0 2 17 -51 7 -25 -31 -47 2
0000f0 ea 05 10 81 e7 f1 19 30 f2 0f f3 ed cc 12 f8 0a
       -22 5 16 -127 -25 -15 25 48 -14 15 -13 -19 -52 18 -8 10
