tflite_models/symbol_recognizer.tflite (tflite, 276680 bytes, 8 tensors)

arith.constant f4 [16]
000000 ca 3c 9f bb 8b ad e6 3b 96 f1 3f ba 1e cd bb bb
       -0.0048595415 0.007039731 -0.0007322071 -0.005731239
000010 1f de ca 3a f9 3b e1 3b 94 a3 23 bb 69 42 cc ba
       0.0015477574 0.0068736044 -0.0024969326 -0.0015583757
000020 e3 bf 8d 3a b1 5a 4d bc 2b 19 77 b9 3a 4a 71 bb
       0.0010814633 -0.01253383 -0.00023565131 -0.0036817924
000030 0f f6 a6 ba 1c a1 41 bb 61 68 b3 ba 03 c3 93 ba
       -0.0012738126 -0.0029545492 -0.0013687724 -0.0011273328

arith.constant1 f4 [16, 3, 3, 3]
000000 d7 29 e8 bc ba d3 3f 3e 6b f6 9a 3c 7a f5 11 be
       -0.028340263 0.18733111 0.01891633 -0.14253798
000010 a8 a0 c4 3d 78 d8 26 be f4 38 ef bd b6 bb 09 3e
       0.09600955 -0.16293514 -0.11680785 0.13450512
000020 58 20 0f 3e ea 74 ee bd 51 1a 1e 3e 76 fc 32 bd
       0.13977182 -0.11643393 0.15439726 -0.043697797
000030 cd 09 19 be ea 11 37 3e 90 13 fe bd ec 1f 10 3e
       -0.14945145 0.17877927 -0.12406075 0.14074677
000040 91 00 32 3d f9 bf 17 be 09 b1 08 be 9c c0 4e 3d
       0.04345757 -0.14819326 -0.13348784 0.050476655
000050 d7 5f 2d 3e e5 e8 0c be b0 07 d0 3d 9e e7 0d bd
       0.16931091 -0.13760717 0.10157716 -0.034644715
000060 fc 2f 13 be 67 15 0a 3e cf 1d 97 3d 8a 86 36 3e
       -0.14373773 0.13484727 0.073787324 0.1782476
000070 a0 2d 9c bd 04 de 00 3e c6 00 2f 3e da 7f 3f 3e
       -0.0762589 0.12584692 0.17090139 0.18701115
000080 8c e4 2d bd cc b6 29 be 8e eb 0f be 79 5b 1d bd
       -0.042454287 -0.16573638 -0.140547 -0.038417313
000090 47 22 22 3e 47 a2 d7 3d bb 3e c5 3d f2 2f 34 be
       0.15833388 0.10528999 0.096311055 -0.17596415
0000a0 c0 95 95 3d d1 3c b5 bd d3 2f 22 3d 4c 7b 8f bd
       0.07303953 -0.088494904 0.03959639 -0.07005939
0000b0 5c 7b 62 bc 39 96 22 be cb ac 35 3e ab ba f9 bd
       -0.0138233565 -0.15877618 0.17741697 -0.12193807
0000c0 fd 97 d2 bd 41 b3 a6 bc 7a b5 84 3d 06 25 24 3d
       -0.10282896 -0.020349147 0.064799264 0.04007437
0000d0 66 a3 5c bd 5c 1d 12 3e 53 1f b9 3d 28 7c 98 bd
       -0.053866766 0.14269012 0.09039178 -0.07445556
0000e0 f6 da c3 3c 69 75 07 3e 00 fb 8c 3d f5 68 1b bc
       0.02390812 0.13228382 0.06883812 -0.009485473
0000f0 16 c9 c9 bd df 64 3e 3e 19 7b 39 3c ba 7a 44 bd
       -0.09852807 0.18593167 0.011320853 -0.047968604
000100 16 68 0f be cc 1b 16 3c c4 e8 e9 3d 84 4e 1f 3e
       -0.1400455 0.009161901 0.1142135 0.15557295
000110 08 c5 09 3d 78 83 ec bc 93 0d a3 bc fa bc 1e 3c
       0.03363517 -0.028871283 -0.019903934 0.00968861
000120 a1 e9 c5 bd 7f 73 b6 3d c3 87 f9 bd 4b ec ae 3d
       -0.09663702 0.08908748 -0.121840976 0.08541163
000130 7f 3a 47 bd 33 c1 a0 3d 3e c0 12 bd 65 92 75 bd
       -0.04863977 0.0784935 -0.035827868 -0.059954066
000140 c3 cb f8 bc bf c4 0c 3e 6d d4 95 3c b4 68 85 bd
       -0.030370599 0.13746928 0.018289769 -0.06514111
000150 3f e6 8e bd 45 62 07 3e 18 14 1c be ef 5b 9e 3d
       -0.0697751 0.1322108 -0.1524204 0.07732379
000160 64 1a fc bd 0f f5 1e bd a9 b9 7c 3a 33 40 2a 3d
       -0.12309721 -0.038807925 0.00096407026 0.04156513
000170 0b 2e 1b 3e e8 c6 2c be 35 0d b0 bd a3 89 c8 bd
       0.15154283 -0.16872752 -0.08596269 -0.09791877
000180 c4 9e 21 3e c2 d2 5b bd 12 6b 78 bd 9b 4c 0b be
       0.1578322 -0.05366779 -0.060648985 -0.13603441
000190 95 10 09 bd db a4 ee 3d de 61 19 3e 9b 3b 75 ba
       -0.03346308 0.116525374 0.1497874 -0.000935489
0001a0 b5 6a aa 3d 08 ec c0 bd 30 e9 0c 3e 28 43 12 3e
       0.08321134 -0.094200194 0.13760829 0.1428343
0001b0 d0 88 c9 3d 00 fc c5 3d 4e e7 15 3e 4d 7d 71 3d
       0.09840548 0.09667206 0.14639017 0.058957387
0001c0 be 49 47 3e ad 90 e9 bd 2e 58 d6 bb 06 79 29 bd
       0.19461724 -0.11404548 -0.0065412736 -0.041375183
0001d0 3e c2 5b 3d f5 1f 2b 3e 38 6e 13 bd 6c 28 78 3d
       0.05365204 0.1671141 -0.035993785 0.060585424
0001e0 8e fe d6 3d 17 6c 40 3c 3a d8 0c 3e 38 f4 98 bb
       0.10497771 0.011744521 0.13754359 -0.004667785
0001f0 43 0c 2d 3e d6 ba 2e be fe e8 fe 3d 24 27 5e bd
       0.16899209 -0.1706346 0.124467835 -0.054236546
000200 5c 50 08 bd 5e 71 56 3d d7 4c 68 bd 6e fc 2b be
       -0.03327976 0.05235421 -0.056713905 -0.16795513
000210 9c 7f b2 3d 7a fb ed bd fb 06 ed bd fe b2 1f bd
       0.08715746 -0.11620231 -0.11573597 -0.03898906
000220 3e e9 07 be 36 b3 2f be 1d f4 b2 3d 0b 89 36 3d
       -0.13272569 -0.17158207 0.08737967 0.044564288
000230 05 d4 21 be 28 1a a3 bd d0 e8 21 be 84 c9 fc 3d
       -0.15803535 -0.07963973 -0.15811467 0.123431236
000240 60 7e d0 bd 05 33 0d 3e 50 89 83 3d 0d 27 ba bd
       -0.10180354 0.13788994 0.06422675 -0.090894796
000250 38 d2 a7 bd 9f 84 55 bd 6a 8e 41 3d fc 07 65 bd
       -0.08194393 -0.05212843 0.047254957 -0.055915818
000260 46 3c d1 3d b6 e0 07 be fa 1b 41 3e de 28 a6 bc
       0.10216574 -0.13269314 0.18858328 -0.020283159
000270 5b 40 e1 bc cc 54 12 3e 31 64 fd bc 62 7c e0 3d
       -0.027496507 0.1429016 -0.030931564 0.10961224
000280 9e 2d a8 3d 5e 73 dc 3d 83 b4 0e bd 09 68 1c be
       0.08211826 0.10764192 -0.03484012 -0.15274061
000290 16 94 a6 bc e1 0b f2 bd 40 91 c9 3d 2e 2d 50 bd
       -0.020334285 -0.11818672 0.09842157 -0.050824337
0002a0 85 7f a4 3d 73 c2 9d bd 45 f9 cf 3d c2 36 6f bd
       0.08032135 -0.07703104 0.10154966 -0.05840183
0002b0 6e 82 e3 bd c6 b6 b2 3d 27 65 61 bd 6d 55 6a 3d
       -0.11108862 0.087262675 -0.055028107 0.057210375
0002c0 25 8a 46 3d da 2a 2a be a2 db f0 3d bc 3e 31 be
       0.04847159 -0.16617909 0.11760642 -0.17309088
0002d0 3d e6 1a 3e ef e6 0b 3e 6f df ce bc 2f 30 b7 bd
       0.15126891 0.13662313 -0.025253026 -0.08944737
0002e0 11 0b ca 3c 8f 78 86 bd dd 3f a2 3c 57 ba f2 3d
       0.02466348 -0.065659635 0.019805843 0.11851948
0002f0 ac c2 11 3e f9 45 1e be b8 93 40 be be 98 f4 bc
       0.14234418 -0.1545638 -0.1880635 -0.02985799
000300 b0 ef 05 3e 67 42 f5 3d c0 0d 00 be 6e c7 20 3c
       0.13079715 0.11975556 -0.12505245 0.009813173
000310 9d 2c e6 bd c7 f8 3a bb 5d fa 76 bd 2f 99 62 3c
       -0.11238978 -0.002852963 -0.06029736 0.013830467
000320 52 66 38 be 0c 51 f9 3d b3 a5 84 3c c4 4c a7 3d
       -0.18007782 0.121736616 0.016192293 0.08168939
000330 b7 42 33 3e 41 6d b3 bb c9 57 23 be 6d aa 3a be
       0.17505918 -0.0054756706 -0.15951456 -0.18229075
000340 d2 5e 08 3e cd 46 63 bd 4d 20 34 3e 2f 14 bd 39
       0.13317421 -0.055487443 0.17590447 0.00036063927
000350 b5 6c 3b 3e da d6 0b 3d 4f a4 32 3e 35 d2 35 3d
       0.18303187 0.034140445 0.17445491 0.044389922
000360 f6 4c 26 3c 1c 85 01 be 36 df 21 3e fe b2 16 3e
       0.010150185 -0.12648433 0.15807804 0.14716718
000370 88 e6 22 3e c7 52 88 bd d0 11 11 bd 0f 79 0e 3e
       0.15908253 -0.066564135 -0.035417378 0.13913368
000380 26 e3 a7 ba 2b 02 2a 3e a5 fb 20 3b 0f 11 d5 bd
       -0.0012808784 0.1660239 0.0024564054 -0.10403644
000390 dc 50 df bd 03 83 05 3e f8 3b 9d bb cc 3f c0 3d
       -0.109040946 0.13038258 -0.0047984086 0.09387168
0003a0 15 7f 5c bd 2c 7a 8b bd a6 c2 28 3e c6 72 4c 3e
       -0.053832132 -0.06810412 0.16480502 0.19965658
0003b0 42 91 b0 3d 4a d7 d3 3d 47 eb 2f 3e 2b d0 03 3e
       0.08621456 0.103437975 0.17179595 0.12872379
0003c0 d1 2c 20 3e 2d b0 5a bd 84 d2 19 bc 09 2a af bd
       0.15642096 -0.05339067 -0.00938857 -0.085529394
0003d0 10 18 26 be de d1 37 be 30 64 1d 3e fa 76 7f bc
       -0.16220117 -0.17951152 0.1537025 -0.015592331
0003e0 2d ca 25 3d de 27 29 3e b4 4f 3e be 7a 56 34 be
       0.040476013 0.16519114 -0.18585092 -0.17611113
0003f0 12 3b 03 3e d3 cd 38 3d 93 a3 ad bd 25 b8 d8 3c
       0.12815502 0.045118164 -0.08478465 0.026454994

arith.constant5 f4 [3, 128]
000000 c9 ae 4f bd 8d 79 cf 3c 9a 12 ff 3d c8 0a 38 3d
       -0.050703797 0.025326515 0.1245472 0.044932157
000010 e0 26 f7 3d 56 2a 49 be fa 6d 51 3e 74 19 48 3e
       0.12067962 -0.19645056 0.20452109 0.1954096
000020 0b 7a 82 bb 73 a1 1a 3d a4 8a fa bc 33 f5 16 3e
       -0.003981834 0.037751626 -0.030583687 0.14741974
000030 29 e8 a6 bd ff df 86 3d 15 2c 7d bc 8e bf 11 3e
       -0.0814975 0.065856926 -0.0154524045 0.14233229
000040 e3 9b c5 3d 71 db 1d be 5c 96 34 be c8 1b a7 bc
       0.09648874 -0.15415742 -0.17635483 -0.02039899
000050 82 21 4c be 3c be 97 bd 0e 7e 3b 3e 40 b8 78 bc
       -0.19934657 -0.07409331 0.18309805 -0.015180647
000060 44 0d dc bc 26 e7 c1 3d 90 02 08 3c ea 5b 7c 3c
       -0.026861794 0.09467916 0.008301392 0.015402773
000070 56 c5 04 be 4d 58 2d be a6 d7 10 3e 44 46 02 3e
       -0.12965903 -0.16928215 0.14144763 0.12722117
000080 c8 77 5e 3c b0 e3 5a bd bb 33 3b be 09 97 ac 3d
       0.013578363 -0.053439796 -0.18281452 0.08427245
000090 96 f4 84 3b 7f c2 50 3e 45 9f a4 3d b4 4e 80 bd
       0.004057477 0.20386694 0.08038191 -0.062650114
0000a0 34 f0 06 be a2 12 93 3d f6 d8 5c 3d 43 87 19 3c
       -0.13177568 0.07181288 0.053917848 0.009370628
0000b0 b1 74 4f 3e 7e c9 b7 3d 33 02 0c 3e c7 d3 3c 3e
       0.20259358 0.089739785 0.13672714 0.18440162
0000c0 81 d5 4f 3e 82 2b cf bd ae df 18 3e 28 25 14 be
       0.20296289 -0.1011572 0.14929077 -0.14467299
0000d0 5f dd 43 3e 6c 4a 4b 3c 8e c5 1c be a6 37 b6 3d
       0.19127415 0.01240788 -0.15309736 0.08897333
0000e0 b6 2a 60 3e 8a c3 dd bc 1e 7f 16 be 48 84 c1 bd
       0.21891293 -0.02707078 -0.14696929 -0.09449059
0000f0 63 05 17 3e 9e d0 f3 bd 37 24 aa bc c4 64 3a 3e
       0.14748149 -0.11905025 -0.020769222 0.18202502
000100 e6 87 52 3e a0 e8 10 be 27 9d 3a bd 00 f4 3a 3e
       0.20559654 -0.1415124 -0.04556003 0.18257141
000110 e6 f2 2d 3e ce 76 02 3e 16 35 20 3e 05 b7 b2 bd
       0.1698719 0.12740633 0.1564525 -0.087263145
000120 48 41 f7 3d fa 43 22 3e 4f 9b b4 bb 94 20 c6 3d
       0.12072998 0.15846244 -0.0055116783 0.096741825
000130 67 d8 43 be 7a f2 c2 bd 32 64 42 3e bd 4f 22 3e
       -0.1912552 -0.09518905 0.18983534 0.1585073
000140 fc 9b 37 3e bb 5c 1f be c3 f9 a3 bd a1 60 35 bd
       0.17930597 -0.15562718 -0.08006623 -0.044281606
000150 12 bf b9 3d 95 6d 4d be d9 3b 06 3e d6 a7 b2 3d
       0.09069647 -0.20061333 0.13108768 0.087234184
000160 c6 e7 b5 3a 2b 6d 16 bb 97 a3 bc bd 6f 0f 8d 3d
       0.0013878278 -0.0022953253 -0.0921089 0.06887709
000170 7a f7 47 bd ed f7 bb 3d e4 9f d2 3d a5 9f 0c 3e
       -0.048819996 0.091781475 0.10284403 0.13732775
000180 fc ef 4c bd 7c a1 2d 3e 8a fb 03 bd d8 4a 9e 3c
       -0.050033554 0.16956133 -0.03222231 0.019322798
000190 f2 7e 56 be 05 4d 0b 3e 4b 83 2a be 0c b6 0c 3e
       -0.20946863 0.136036 -0.16651647 0.1374132
0001a0 7a d9 27 3d d7 c7 f0 3c 84 f7 1a 3e 9a 10 a6 bd
       0.040978886 0.029392166 0.15133482 -0.08108635
0001b0 5a 29 4b be 07 4e 92 bc 3e f7 e2 bd c8 6b 97 3d
       -0.19839993 -0.017859472 -0.11082314 0.073936045
0001c0 36 07 8c 3d 2f 63 2c bd 7e af 04 3e 9d c3 c1 3c
       0.06837313 -0.042086776 0.1295757 0.023652846
0001d0 ea c1 ea ba 95 1b bd 3d 5c b9 b3 bd cf f2 39 3e
       -0.0017910574 0.092337765 -0.08775589 0.1815903
0001e0 1e 6e 4f 3e 88 de c5 3d 31 00 e6 bc c7 34 3d be
       0.2025685 0.09661585 -0.028076263 -0.18477164
0001f0 3f 3f bd 3d a7 d8 8b bd 6d 24 7e bd 8f d5 4c 3e
       0.09240579 -0.068284325 -0.062046457 0.20003341
000200 7a 2c 0f 3c 24 23 92 bd 48 dc 11 be 76 bf 31 be
       0.008738631 -0.07135609 -0.14244187 -0.17358193
000210 ae 6d fb bd f9 65 8f 3d 8e 37 29 3e fe 47 4b 3e
       -0.12276779 0.070018716 0.16525099 0.19851682
000220 6f fa cc 3d 51 2d 0c be 56 48 06 3d 95 4d 04 3e
       0.10008704 -0.13689162 0.03278383 0.1292022
000230 55 2d f4 bd e7 b5 56 be 82 ed d7 bd 53 8a 10 3c
       -0.11922709 -0.20967828 -0.10543348 0.008822042
000240 39 46 2e 3e c4 65 4d be 05 ce 2a be fc 5b 6d 3d
       0.17018975 -0.20058352 -0.16680153 0.05794905
000250 8e dc 47 3b 0d fd 4e 3e df 08 49 bd 95 f3 16 bc
       0.003049645 0.20213719 -0.049080726 -0.009213348
000260 00 1d 18 3d 42 69 ce bb ea 8f 4d 3e 5f 69 3e bd
       0.03713703 -0.006299169 0.2007443 -0.04648721
000270 90 82 08 be cb aa 5d 3d 63 d7 45 3e 02 96 34 3d
       -0.13331056 0.05411796 0.19320445 0.04408837
000280 e9 81 5e 3e 5f 69 05 3e de 9d 92 3d f7 4d 1b be
       0.21729244 0.13028477 0.07159017 -0.1516646
000290 f5 1c 25 3e 2c 95 81 bc 3c cc 77 bd 10 82 29 3c
       0.16124327 -0.015818201 -0.060497507 0.010345951
0002a0 d2 5c de bd ac 46 fd 3d da e6 4f be b9 ec 7a 3d
       -0.10857548 0.12366995 -0.20302907 0.061260913
0002b0 4a 85 24 be e2 97 50 be 11 82 d0 bd 1b c5 d5 bd
       -0.1606647 -0.20370439 -0.10181058 -0.104379855
0002c0 54 d0 b0 3d 0a e1 a6 3d a3 72 23 be ad 44 bf bd
       0.086334854 0.081483915 -0.15961699 -0.09339271
0002d0 22 8d 28 be db d5 b6 3d 9f 7d 55 bc 11 2a a5 3d
       -0.16460088 0.089275084 -0.013030439 0.08064664
0002e0 b1 cf 33 be 64 15 9b bd 32 3d f1 3d bd 32 46 3e
       -0.17559697 -0.07572439 0.1177925 0.19355293
0002f0 9c 39 27 be be f7 ed bd e4 ff c1 bc 95 ca 90 ba
       -0.1633057 -0.11619519 -0.023681588 -0.0011046702
000300 57 ab 8c 3d e5 a7 b6 bd 1e e6 a0 3d 45 0b a4 3c
       0.06868618 -0.08918742 0.07856391 0.020024905
000310 1c 6b 44 3d 5e 12 bd bd 28 24 a5 bd 68 2d 17 3e
       0.04795371 -0.09232019 -0.08063537 0.14763415
000320 c5 42 18 3d 40 35 61 bd 9e f1 b0 3c 1b 67 1f 3e
       0.03717305 -0.054982424 0.021599587 0.15566675
000330 d5 b0 a3 3d f1 ce 67 bd 64 1d cd bd 20 0e 35 be
       0.079927124 -0.05659384 -0.100153714 -0.1768117
000340 b9 b5 19 bd a2 42 07 be 40 93 1f be cc c5 03 3d
       -0.03752682 -0.13209012 -0.15583515 0.032171056
000350 7f f5 1f 3e 23 37 91 bd 74 f8 d6 bb 30 b7 4d 3d
       0.15620993 -0.070905946 -0.0065603796 0.05022353
000360 ab d0 47 3e 16 12 f2 bd 34 d5 44 be d0 d9 f2 3d
       0.19513194 -0.11819856 -0.19221956 0.11857951
000370 45 f9 28 3e 4c c9 1c be 7c 4e ec 3d ab 26 3d 3e
       0.16501339 -0.15311164 0.11538407 0.18471782
000380 f8 b8 83 bd d9 6d 3f be 76 99 14 be d5 b1 1f 3e
       -0.06431764 -0.18694247 -0.14511666 0.15595181
000390 53 d4 93 bd bb 7f f9 3d 7c 4a 20 3e 13 6e 03 3e
       -0.07218232 0.12182566 0.15653414 0.12834959
0003a0 61 4d 31 3c b3 0c 2c bd f6 eb 4d be e5 4c b7 3c
       0.010821671 -0.0420043 -0.20109543 0.022375533
0003b0 3d cf d2 bd 45 a1 23 3d 00 c0 3e bd 1b 27 3f 3e
       -0.10293434 0.03994872 -0.046569824 0.18667261
0003c0 80 1f f0 ba 87 35 29 3e 26 cb eb bd 3e 3d fc bc
       -0.0018319935 0.16524325 -0.11513357 -0.030790921
0003d0 49 6b 95 bd a5 af 27 3e 0f d0 51 3e 28 12 4c be
       -0.07295854 0.16375597 0.20489524 -0.19928801
0003e0 92 8d 3e 3e 83 cf cb bd 91 15 31 be ee 78 8f bd
       0.18608692 -0.09951689 -0.17293383 -0.070054874
0003f0 6d 4e 2f 3e d9 32 53 be 47 3f b9 ba e0 34 01 be
       0.17119761 -0.20624866 -0.0014133238 -0.12617826

arith.constant6 f4 [128]
000000 b3 71 c2 3b ed 8d 96 bb 88 70 22 3b 05 61 3f 3b
       0.005933964 -0.0045945556 0.0024786312 0.0029202115
000010 6f 96 9c bb 49 78 a9 bb 0a e9 2f 3c 2e 0b 09 3c
       -0.0047786753 -0.00517181 0.010736713 0.008364482
000020 e4 03 04 3c 4f db cc 3b 9c c1 e6 3b ed bb 03 3c
       0.008057568 0.0062517296 0.007042123 0.0080404105
000030 f5 ec ec bb e4 73 5b bb 7e 10 c0 3b a0 9a df ba
       -0.007230396 -0.0033485824 0.005861341 -0.0017059632
000040 91 cc f2 3b 9d ff d9 bb 00 00 00 00 00 00 00 00
       0.00740964 -0.006652786 0.0 0.0
000050 b3 c5 ad bb 00 00 00 00 f6 8e 9e 3b b6 8e e3 3b
       -0.0053031086 0.0 0.0048388196 0.0069445027
000060 12 ab fa 3b 72 60 ba 3a c2 d3 85 3b 85 bf ad bb
       0.0076497877 0.0014219417 0.0040840814 -0.005302372
000070 d7 70 ec bb 0c 16 8f ba c3 32 92 3b 04 a2 f7 bb
       -0.0072156 -0.0010916605 0.0044616177 -0.0075571556
000080 1b 64 c0 3b 00 00 00 00 47 67 cf ba cc 7c 19 ba
       0.0058713085 0.0 -0.0015823626 -0.0005855083
000090 83 0b ce 3b 22 4f 8d 3b 3e ca 92 bb 20 82 2f bb
       0.0062879934 0.004312412 -0.0044796756 -0.0026780441
0000a0 2c 4d ff bb 56 85 9c bb f8 c5 ad bb c5 9a 0a 3c
       -0.007791182 -0.004776637 -0.0053031407 0.0084597515
0000b0 c5 c5 ad bb c3 1e 97 3a 4b 12 01 3c 00 00 00 00
       -0.005303117 0.0011529553 0.007877897 0.0
0000c0 52 e4 8e 3a a6 95 22 3b c9 40 b8 3a 5a 71 0a bc
       0.0010901785 0.0024808436 0.0014057393 -0.008449877
0000d0 89 80 e3 3b da 99 be b9 29 98 4d 3b 31 6f fd 3b
       0.006942813 -0.00036354252 0.0031371212 0.0077342023
0000e0 3b ed f2 3b c8 0c 14 3c 39 bc 92 bb 9c 14 8b b8
       0.007413534 0.00903625 -0.0044780043 -6.631875e-05
0000f0 11 2e 03 3b 3e 22 e4 bb cb 5e 03 3c c4 c8 61 3b
       0.0020016471 -0.00696209 0.008018206 0.003445194
000100 e0 0e dd bb 00 00 00 00 99 33 b3 3b 55 15 b2 bb
       -0.006746158 0.0 0.0054687974 -0.005434672
000110 3c c3 ad bb d8 cd 3a 3c 14 de e8 bb e8 37 81 3b
       -0.0053028148 0.011401616 -0.007106552 0.003943432
000120 2e 0f 5b bb 37 8f e4 bb 4d e1 8b 3b 94 ef ad 3b
       -0.0033425796 -0.0069750804 0.0042688013 0.005308101
000130 ef a7 68 bb 6e 9d ca bb 2f c6 ad bb 60 31 99 bb
       -0.0035500487 -0.006183318 -0.0053031663 -0.0046750754
000140 d0 55 7d b9 09 c4 ad bb 09 05 ad 3b a6 f9 bf 3a
       -0.00024159928 -0.00530291 0.0052801413 0.0014646545
000150 00 00 00 00 7f f6 02 bb 03 97 9c bb 26 b2 f8 3b
       0.0 -0.001998335 -0.004778744 0.0075895963
000160 dc 64 09 39 08 64 8f ba d2 c4 ad bb 48 99 6e 3b
       0.00013102911 -0.0010939846 -0.005303004 0.003640728
000170 a4 9e ac 3b 0c 97 9c bb 57 0a 81 bb 00 00 00 00
       0.005267935 -0.0047787484 -0.003938 0.0
000180 00 00 00 00 af 4d ed bb 03 91 ef bb 40 4c bf 3b
       0.0 -0.0072419266 -0.007310988 0.005837947
000190 3a 56 09 ba c9 93 24 3c ed c3 22 3c b9 e7 21 3c
       -0.0005238984 0.010045 0.009934408 0.009881907
0001a0 70 71 02 bc 48 9a 10 3b c0 c5 ad bb 44 bb ad bb
       -0.007961616 0.0022064615 -0.0053031147 -0.005301865
0001b0 21 c4 ad bb 5e 52 75 3b 8e 1b 86 bb e5 96 ab 3b
       -0.0053029214 0.0037433128 -0.0040926402 0.005236494
0001c0 00 00 00 00 84 1c 60 3b 26 98 9c bb f8 a5 ad bb
       0.0 0.0034196684 -0.0047788797 -0.005299326
0001d0 b1 ae d8 ba 88 e7 eb 3b 26 b4 f2 bb 00 00 00 00
       -0.0016531554 0.0071992315 -0.0074067293 0.0
0001e0 18 e9 e7 ba 9b 98 9c bb cb 9b bc bb 6e 13 d3 3b
       -0.0017693369 -0.004778934 -0.0057558767 0.006441525
0001f0 c9 c1 ad bb a7 d4 dc bb a0 c4 95 39 50 98 9c bb
       -0.005302642 -0.0067392173 0.00028565992 -0.0047788993

arith.constant7 f4 [32]
000000 1b 1a e8 3b a7 07 b2 3b 39 cd 87 3a e4 86 29 3c
       0.00708319 0.005433041 0.0010360844 0.010347102
000010 b3 26 df bb ba 7f ed ba 4b 90 e6 3b a8 8d 62 bb
       -0.006810033 -0.001811973 0.007036244 -0.0034569297
000020 51 92 ef bb 47 5d a7 ba 26 43 f0 3b 36 04 92 3b
       -0.0073111434 -0.0012768888 0.0073322235 0.0044560684
000030 cf f4 1f bb f5 97 02 3b 07 97 d6 3b 54 5b dd bb
       -0.0024407392 0.0019927 0.0065487656 -0.006755272
000040 38 d4 ab ba 70 ec 82 bb 8f d5 0f bc 16 77 f6 3b
       -0.0013109511 -0.0039954707 -0.008778944 0.0075215204
000050 1e d0 8d bb 9e 20 a9 3b 08 57 cf 39 68 d5 f7 3a
       -0.004327788 0.005161359 0.0003954696 0.0018908205
000060 01 1c af 3b 23 b9 ed 3b 28 40 d1 3b c8 ee 27 bb
       0.0053439145 0.007254736 0.006385822 -0.0025624502
000070 80 89 b1 3b de f2 cd b9 c4 54 b8 39 c6 5a cd 3b
       0.0054180026 -0.00039281597 0.0003515837 0.0062669246

arith.constant8 f4 [3]
000000 3c 16 e2 ba 61 bf bb 3b 1c 7c 0d bc
       -0.0017249058 0.0057296013 -0.008635547

tfl.pseudo_qconst i1 [32, 3, 3, 16]
000000 2a 3b 51 19 b1 99 49 0b f3 a4 04 fe b2 21 b2 bc
       42 59 81 25 -79 -103 73 11 -13 -92 4 -2 -78 33 -78 -68
000010 bc 20 ee b7 f7 8e a7 b3 d9 4c a3 e6 a2 e9 0c ba
       -68 32 -18 -73 -9 -114 -89 -77 -39 76 -93 -26 -94 -23 12 -70
000020 13 d2 fd 53 d1 41 4e 32 28 24 cf f0 f0 ca 6a 70
       19 -46 -3 83 -47 65 78 50 40 36 -49 -16 -16 -54 106 112
000030 d8 c6 0f b7 d5 c8 1d a7 00 59 b5 b2 6c d7 e7 b0
       -40 -58 15 -73 -43 -56 29 -89 0 89 -75 -78 108 -41 -25 -80
000040 c1 3b c2 a5 ae 4d ad e5 b4 54 c1 2a f9 5c 05 d7
       -63 59 -62 -91 -82 77 -83 -27 -76 84 -63 42 -7 92 5 -41
000050 50 ab 52 e6 fa 26 f5 9b e4 1d e2 c9 f6 bf 26 53
       80 -85 82 -26 -6 38 -11 -101 -28 29 -30 -55 -10 -65 38 83
000060 b0 e1 ef 38 d0 28 70 f0 19 f0 7f 94 1d ec 0b e6
       -80 -31 -17 56 -48 40 112 -16 25 -16 127 -108 29 -20 11 -26
000070 bf a4 3a de b3 3f da b4 1c c3 31 cc 56 36 5f c1
       -65 -92 58 -34 -77 63 -38 -76 28 -61 49 -52 86 54 95 -63
000080 01 17 1c f3 d8 45 f0 e8 5a 68 a2 09 31 3f e3 1c
       1 23 28 -13 -40 69 -16 -24 90 104 -94 9 49 63 -29 28
000090 cd a2 1c 6d c5 8e b6 77 27 d2 a1 6d c6 a1 c3 03
       -51 -94 28 109 -59 -114 -74 119 39 -46 -95 109 -58 -95 -61 3
0000a0 6e dc 8a 34 e0 c7 ad cc b2 d3 90 fd bf a4 b9 78
       110 -36 -118 52 -32 -57 -83 -52 -78 -45 -112 -3 -65 -92 -71 120
0000b0 3d c0 2d b3 e9 f7 8e 9d 18 ff 11 d1 98 f7 0d 2b
       61 -64 45 -77 -23 -9 -114 -99 24 -1 17 -47 -104 -9 13 43
0000c0 40 2e 10 4f c3 2e fe 2d 44 e7 ee bf 26 b1 d5 64
       64 46 16 79 -61 46 -2 45 68 -25 -18 -65 38 -79 -43 100
0000d0 f2 49 1f bb 07 df f6 28 3c 4b 6b 97 5f d1 d8 bd
       -14 73 31 -69 7 -33 -10 40 60 75 107 -105 95 -47 -40 -67
0000e0 34 f0 1d 09 0a 40 bc fb 4d 8f dc 5c 0f a9 44 d6
       52 -16 29 9 10 64 -68 -5 77 -113 -36 92 15 -87 68 -42
0000f0 e1 64 2f 4d 6d 44 60 1e 4b 8e 9b 97 d1 fc 44 56
       -31 100 47 77 109 68 96 30 75 -114 -101 -105 -47 -4 68 86

tfl.pseudo_qconst1 i1 [128, 2048]
000000 df a7 ae e2 11 ff a4 03 d7 c4 fe 2c 37 39 f7 44
       -33 -89 -82 -30 17 -1 -92 3 -41 -60 -2 44 55 57 -9 68
000010 4b a0 b0 70 34 35 a7 b4 4a f5 aa ad b7 1f ae b6
       75 -96 -80 112 52 53 -89 -76 74 -11 -86 -83 -73 31 -82 -74
000020 d4 62 39 ac ae 21 24 04 37 cd fd 51 60 ce c6 d6
       -44 98 57 -84 -82 33 36 4 55 -51 -3 81 96 -50 -58 -42
000030 ba e5 4d 30 a0 b8 17 0a 1f 5c 0c e3 16 0d 2d 53
       -70 -27 77 48 -96 -72 23 10 31 92 12 -29 22 13 45 83
000040 13 ef da 28 25 64 0b ff 05 03 bf e9 31 5f 49 47
       19 -17 -38 40 37 100 11 -1 5 3 -65 -23 49 95 73 71
000050 46 ea bb 0e af 16 ea b5 28 0d c1 05 f8 58 1a 45
       70 -22 -69 14 -81 22 -22 -75 40 13 -63 5 -8 88 26 69
000060 cc 51 57 09 36 9d b4 45 d0 ee b9 cb b5 5a 0a 35
       -52 81 87 9 54 -99 -76 69 -48 -18 -71 -53 -75 90 10 53
000070 32 ff b7 fb e5 fc d0 ad 5c 32 5c f9 01 05 9b d4
       50 -1 -73 -5 -27 -4 -48 -83 92 50 92 -7 1 5 -101 -44
000080 18 f5 0b b9 e9 b1 e4 4e 62 ab e3 d3 c6 73 e0 54
       24 -11 11 -71 -23 -79 -28 78 98 -85 -29 -45 -58 115 -32 84
000090 e6 cc 0b 19 0a ec d9 cb 07 1c 22 d0 ec a5 06 c4
       -26 -52 11 25 10 -20 -39 -53 7 28 34 -48 -20 -91 6 -60
0000a0 5e 26 ea da cc 36 70 67 f5 5e 9d 0c a5 19 b9 a4
       94 38 -22 -38 -52 54 112 103 -11 94 -99 12 -91 25 -71 -92
0000b0 63 c5 63 ef e5 dd 16 5d 4d 48 f0 29 e5 e5 28 01
       99 -59 99 -17 -27 -35 22 93 77 72 -16 41 -27 -27 40 1
0000c0 20 bd 2c 1c 1a a2 d2 f6 11 eb c3 60 ca f3 2f d0
       32 -67 44 28 26 -94 -46 -10 17 -21 -61 96 -54 -13 47 -48
0000d0 55 b3 ef ec e0 8a bd dc 1a fe 04 3b a5 59 4a c0
       85 -77 -17 -20 -32 -118 -67 -36 26 -2 4 59 -91 89 74 -64
0000e0 11 ee 9d 42 ec ef a8 a1 c2 f2 74 01 0c 03 e3 25
       17 -18 -99 66 -20 -17 -88 -95 -62 -14 116 1 12 3 -29 37
0000f0 17 fa 1a 10 f5 6c c8 10 f3 b9 f7 1a c3 1e c8 93
       23 -6 26 16 -11 108 -56 16 -13 -71 -9 26 -61 30 -56 -109
